…
测试样本数量为10000份，每张样本图像大小为28*28。由于每个样本的像素值是0至255之间的值，因此在训练网络之前进行了归一化的操作。\n而y_train,y_test则存储每个样本所对应的服装种类，用1~10表示。\n模型建立 模型方面，参考了VGG网络结构[^1]，大致特征为：\n使用连续的小卷积核(3×3)做连续卷积，卷积的固定步长为1，并在图像的边缘填充1个像素，这样卷积后保持图像的分辨率不变。 连续的卷积层会接着一个池化层，降低图像的分辨率。空间池化由两个最大池化层进行，并在2×2像素窗口上进行最大池化。 卷积层后，接着的是3个全连接层，前两个分别为512、64个通道，第三是输出层输出10个分类。 每个隐藏层的激活函数均使用ReLU。 使用多次Dropout，以避免多次训练后的过拟合问题（具体表现为损失率后期增高）。 以下为网络详细结构\nModel: \u0026#34;sequential_1\u0026#34; ______________________________________________________________ Layer (type) Output Shape Param # ============================================================== conv2d_6 (Conv2D) (None, 28, 28, 32) 320 ______________________________________________________________ conv2d_7 (Conv2D) (None, 28, 28, 32) 9248 ______________________________________________________________ dropout_5 (Dropout) (None, 28, 28, 32) 0 ______________________________________________________________ conv2d_8 (Conv2D) (None, 28, 28, 64) 18496 ______________________________________________________________ max_pooling2d_2 (MaxPooling2 (None, 14, 14, 64) 0 ______________________________________________________________ dropout_6 (Dropout) (None, 14, 14, 64) 0 ______________________________________________________________ conv2d_9 (Conv2D) (None, 14, 14, 128) 73856 ______________________________________________________________ conv2d_10 (Conv2D) (None, 14, 14, 128) 147584 ______________________________________________________________ conv2d_11 (Conv2D) (None, 14, 14, 256) 295168 ______________________________________________________________ max_pooling2d_3 (MaxPooling2 (None, 7, 7, 256) 0 ______________________________________________________________ dropout_7 (Dropout) (None, 7, 7, 256) 0 ______________________________________________________________ flatten_1 (Flatten) (None, 12544) 0 ______________________________________________________________ dense_3 (Dense) (None, 512) 6423040 ______________________________________________________________ dropout_8 (Dropout) (None, 512) 0 ______________________________________________________________ dense_4 (Dense) (None, 64) 32832 ______________________________________________________________ dropout_9 (Dropout) (None, 64) 0 ______________________________________________________________ dense_5 (Dense) (None, 10) 650 ============================================================== Total params: 7,001,194 Trainable params: 7,001,194 Non-trainable params: 0 分析结果 训练精度 泛化精度 训练误差 泛化误差 0.9684 0.9304 0.0909 0.2591 可以看出，各精度指标均在93%以上，模型较好。\n但通过图表可以观察到，在第10次学习后，泛化误差开始明显上升，说明出现过拟合问题，这一点或许可以通过增加Dropout、加大网络深度及降低学习率解决。\n优化方向 在进行卷积操作时，本模型使用的方法是采用边界填充（Padding）操作，在图像外围填充数值0，再进行卷积操作，经过一次卷积后输出的特征图矩阵与输入的图像矩阵有相同的大小，解决训练深度受限的问题.但此方
…
